…
2019-03-09 09:42:17.393271: I tensorflow/core/common_runtime/gpu/gpu_device.cc:1084] Created TensorFlow device (/job:localhost/replica:0/task:0/device:GPU:1 with 11368 MB memory) -> physical GPU (device: 1, name: TITAN X (Pascal), pci bus id: 0000:09:00.0, compute capability: 6.1)
__________________________________________________________________________________________________
Layer (type)                    Output Shape         Param #     Connected to                     
==================================================================================================
main_input (InputLayer)         (None, 480, 480, 3)  0                                            
__________________________________________________________________________________________________
aux_input (InputLayer)          (None, 480, 480, 3)  0                                            
__________________________________________________________________________________________________
conv2d_14 (Conv2D)              (None, 480, 480, 64) 1792        main_input[0][0]                 
__________________________________________________________________________________________________
conv2d_1 (Conv2D)               (None, 480, 480, 64) 1792        aux_input[0][0]                  
__________________________________________________________________________________________________
batch_normalization_14 (BatchNo (None, 480, 480, 64) 256         conv2d_14[0][0]                  
__________________________________________________________________________________________________
batch_normalization_1 (BatchNor (None, 480, 480, 64) 256         conv2d_1[0][0]                   
__________________________________________________________________________________________________
activation_14 (Activation)      (None, 480, 480, 64) 0           batch_normalization_14[0][0]     
__________________________________________________________________________________________________
activation_1 (Activation)       (None, 480, 480, 64) 0           batch_normalization_1[0][0]      
__________________________________________________________________________________________________
conv2d_15 (Conv2D)              (None, 480, 480, 64) 36928       activation_14[0][0]              
__________________________________________________________________________________________________
conv2d_2 (Conv2D)               (None, 480, 480, 64) 36928       activation_1[0][0]               
__________________________________________________________________________________________________
batch_normalization_15 (BatchNo (None, 480, 480, 64) 256         conv2d_15[0][0]                  
__________________________________________________________________________________________________
batch_normalization_2 (BatchNor (None, 480, 480, 64) 256         conv2d_2[0][0]                   
__________________________________________________________________________________________________
activation_15 (Activation)      (None, 480, 480, 64) 0           batch_normalization_15[0][0]     
__________________________________________________________________________________________________
activation_2 (Activation)       (None, 480, 480, 64) 0           batch_normalization_2[0][0]      
__________________________________________________________________________________________________
average_1 (Average)             (None, 480, 480, 64) 0           activation_15[0][0]              
                                                                 activation_2[0][0]               
__________________________________________________________________________________________________
max_pooling_with_argmax2d_5 (Ma [(None, 240, 240, 64 0           average_1[0][0]                  
__________________________________________________________________________________________________
…
__________________________________________________________________________________________________
activation_7 (Activation)       (None, 120, 120, 256 0           batch_normalization_7[0][0]      
__________________________________________________________________________________________________
average_3 (Average)             (None, 120, 120, 256 0           activation_20[0][0]              
                                                                 activation_7[0][0]               
__________________________________________________________________________________________________
max_pooling_with_argmax2d_7 (Ma [(None, 60, 60, 256) 0           average_3[0][0]                  
__________________________________________________________________________________________________
max_pooling_with_argmax2d_3 (Ma [(None, 60, 60, 256) 0           activation_7[0][0]               
__________________________________________________________________________________________________
conv2d_21 (Conv2D)              (None, 60, 60, 512)  1180160     max_pooling_with_argmax2d_7[0][0]
__________________________________________________________________________________________________
conv2d_8 (Conv2D)               (None, 60, 60, 512)  1180160     max_pooling_with_argmax2d_3[0][0]
__________________________________________________________________________________________________
batch_normalization_21 (BatchNo (None, 60, 60, 512)  2048        conv2d_21[0][0]                  
__________________________________________________________________________________________________
batch_normalization_8 (BatchNor (None, 60, 60, 512)  2048        conv2d_8[0][0]                   
__________________________________________________________________________________________________
activation_21 (Activation)      (None, 60, 60, 512)  0           batch_normalization_21[0][0]     
__________________________________________________________________________________________________
activation_8 (Activation)       (None, 60, 60, 512)  0           batch_normalization_8[0][0]      
__________________________________________________________________________________________________
conv2d_22 (Conv2D)              (None, 60, 60, 512)  2359808     activation_21[0][0]              
__________________________________________________________________________________________________
conv2d_9 (Conv2D)               (None, 60, 60, 512)  2359808     activation_8[0][0]               
__________________________________________________________________________________________________
batch_normalization_22 (BatchNo (None, 60, 60, 512)  2048        conv2d_22[0][0]                  
__________________________________________________________________________________________________
batch_normalization_9 (BatchNor (None, 60, 60, 512)  2048        conv2d_9[0][0]                   
__________________________________________________________________________________________________
activation_22 (Activation)      (None, 60, 60, 512)  0           batch_normalization_22[0][0]     
__________________________________________________________________________________________________
activation_9 (Activation)       (None, 60, 60, 512)  0           batch_normalization_9[0][0]      
__________________________________________________________________________________________________
conv2d_23 (Conv2D)              (None, 60, 60, 512)  2359808     activation_22[0][0]              
__________________________________________________________________________________________________
conv2d_10 (Conv2D)              (None, 60, 60, 512)  2359808     activation_9[0][0]               
__________________________________________________________________________________________________
batch_normalization_23 (BatchNo (None, 60, 60, 512)  2048        conv2d_23[0][0]                  
__________________________________________________________________________________________________
batch_normalization_10 (BatchNo (None, 60, 60, 512)  2048        conv2d_10[0][0]                  
__________________________________________________________________________________________________
activation_23 (Activation)      (None, 60, 60, 512)  0           batch_normalization_23[0][0]     
__________________________________________________________________________________________________
activation_10 (Activation)      (None, 60, 60, 512)  0           batch_normalization_10[0][0]     
__________________________________________________________________________________________________
average_4 (Average)             (None, 60, 60, 512)  0           activation_23[0][0]              
                                                                 activation_10[0][0]              
__________________________________________________________________________________________________
max_pooling_with_argmax2d_8 (Ma [(None, 30, 30, 512) 0           average_4[0][0]                  
__________________________________________________________________________________________________
conv2d_24 (Conv2D)              (None, 30, 30, 512)  2359808     max_pooling_with_argmax2d_8[0][0]
__________________________________________________________________________________________________
max_pooling_with_argmax2d_4 (Ma [(None, 30, 30, 512) 0           activation_10[0][0]              
__________________________________________________________________________________________________
batch_normalization_24 (BatchNo (None, 30, 30, 512)  2048        conv2d_24[0][0]                  
__________________________________________________________________________________________________
conv2d_11 (Conv2D)              (None, 30, 30, 512)  2359808     max_pooling_with_argmax2d_4[0][0]
__________________________________________________________________________________________________
activation_24 (Activation)      (None, 30, 30, 512)  0           batch_normalization_24[0][0]     
__________________________________________________________________________________________________
batch_normalization_11 (BatchNo (None, 30, 30, 512)  2048        conv2d_11[0][0]                  
__________________________________________________________________________________________________
conv2d_25 (Conv2D)              (None, 30, 30, 512)  2359808     activation_24[0][0]              
__________________________________________________________________________________________________
activation_11 (Activation)      (None, 30, 30, 512)  0           batch_normalization_11[0][0]     
__________________________________________________________________________________________________
batch_normalization_25 (BatchNo (None, 30, 30, 512)  2048        conv2d_25[0][0]                  
__________________________________________________________________________________________________
conv2d_12 (Conv2D)              (None, 30, 30, 512)  2359808     activation_11[0][0]              
__________________________________________________________________________________________________
activation_25 (Activation)      (None, 30, 30, 512)  0           batch_normalization_25[0][0]     
__________________________________________________________________________________________________
batch_normalization_12 (BatchNo (None, 30, 30, 512)  2048        conv2d_12[0][0]                  
__________________________________________________________________________________________________
conv2d_26 (Conv2D)              (None, 30, 30, 512)  2359808     activation_25[0][0]              
__________________________________________________________________________________________________
activation_12 (Activation)      (None, 30, 30, 512)  0           batch_normalization_12[0][0]     
__________________________________________________________________________________________________
batch_normalization_26 (BatchNo (None, 30, 30, 512)  2048        conv2d_26[0][0]                  
__________________________________________________________________________________________________
conv2d_13 (Conv2D)              (None, 30, 30, 512)  2359808     activation_12[0][0]              
__________________________________________________________________________________________________
activation_26 (Activation)      (None, 30, 30, 512)  0           batch_normalization_26[0][0]     
__________________________________________________________________________________________________
batch_normalization_13 (BatchNo (None, 30, 30, 512)  2048        conv2d_13[0][0]                  
__________________________________________________________________________________________________
activation_27 (Activation)      (None, 30, 30, 512)  0           activation_26[0][0]              
__________________________________________________________________________________________________
activation_13 (Activation)      (None, 30, 30, 512)  0           batch_normalization_13[0][0]     
__________________________________________________________________________________________________
average_5 (Average)             (None, 30, 30, 512)  0           activation_27[0][0]              
                                                                 activation_13[0][0]              
__________________________________________________________________________________________________
max_pooling_with_argmax2d_9 (Ma [(None, 15, 15, 512) 0           average_5[0][0]                  
__________________________________________________________________________________________________
max_unpooling2d_1 (MaxUnpooling (None, 30, 30, 512)  0           max_pooling_with_argmax2d_9[0][0]
                                                                 max_pooling_with_argmax2d_9[0][1]
__________________________________________________________________________________________________
conv2d_27 (Conv2D)              (None, 30, 30, 512)  2359808     max_unpooling2d_1[0][0]          
__________________________________________________________________________________________________
batch_normalization_27 (BatchNo (None, 30, 30, 512)  2048        conv2d_27[0][0]                  
__________________________________________________________________________________________________
activation_28 (Activation)      (None, 30, 30, 512)  0           batch_normalization_27[0][0]     
__________________________________________________________________________________________________
conv2d_28 (Conv2D)              (None, 30, 30, 512)  2359808     activation_28[0][0]              
__________________________________________________________________________________________________
batch_normalization_28 (BatchNo (None, 30, 30, 512)  2048        conv2d_28[0][0]                  
__________________________________________________________________________________________________
activation_29 (Activation)      (None, 30, 30, 512)  0           batch_normalization_28[0][0]     
__________________________________________________________________________________________________
conv2d_29 (Conv2D)              (None, 30, 30, 512)  2359808     activation_29[0][0]              
__________________________________________________________________________________________________
batch_normalization_29 (BatchNo (None, 30, 30, 512)  2048        conv2d_29[0][0]                  
__________________________________________________________________________________________________
activation_30 (Activation)      (None, 30, 30, 512)  0           batch_normalization_29[0][0]     
__________________________________________________________________________________________________
max_unpooling2d_2 (MaxUnpooling (None, 60, 60, 512)  0           activation_30[0][0]              
                                                                 max_pooling_with_argmax2d_8[0][1]
__________________________________________________________________________________________________
conv2d_30 (Conv2D)              (None, 60, 60, 512)  2359808     max_unpooling2d_2[0][0]          
__________________________________________________________________________________________________
batch_normalization_30 (BatchNo (None, 60, 60, 512)  2048        conv2d_30[0][0]                  
__________________________________________________________________________________________________
activation_31 (Activation)      (None, 60, 60, 512)  0           batch_normalization_30[0][0]     
__________________________________________________________________________________________________
conv2d_31 (Conv2D)              (None, 60, 60, 512)  2359808     activation_31[0][0]              
__________________________________________________________________________________________________
batch_normalization_31 (BatchNo (None, 60, 60, 512)  2048        conv2d_31[0][0]                  
__________________________________________________________________________________________________
activation_32 (Activation)      (None, 60, 60, 512)  0           batch_normalization_31[0][0]     
__________________________________________________________________________________________________
conv2d_32 (Conv2D)              (None, 60, 60, 256)  1179904     activation_32[0][0]              
__________________________________________________________________________________________________
batch_normalization_32 (BatchNo (None, 60, 60, 256)  1024        conv2d_32[0][0]                  
__________________________________________________________________________________________________
activation_33 (Activation)      (None, 60, 60, 256)  0           batch_normalization_32[0][0]     
__________________________________________________________________________________________________
max_unpooling2d_3 (MaxUnpooling (None, 120, 120, 256 0           activation_33[0][0]              
                                                                 max_pooling_with_argmax2d_7[0][1]
__________________________________________________________________________________________________
…
conv2d_36 (Conv2D)              (None, 240, 240, 128 147584      max_unpooling2d_4[0][0]          
__________________________________________________________________________________________________
batch_normalization_36 (BatchNo (None, 240, 240, 128 512         conv2d_36[0][0]                  
__________________________________________________________________________________________________
activation_37 (Activation)      (None, 240, 240, 128 0           batch_normalization_36[0][0]     
__________________________________________________________________________________________________
conv2d_37 (Conv2D)              (None, 240, 240, 64) 73792       activation_37[0][0]              
__________________________________________________________________________________________________
batch_normalization_37 (BatchNo (None, 240, 240, 64) 256         conv2d_37[0][0]                  
__________________________________________________________________________________________________
activation_38 (Activation)      (None, 240, 240, 64) 0           batch_normalization_37[0][0]     
__________________________________________________________________________________________________
max_unpooling2d_5 (MaxUnpooling (None, 480, 480, 64) 0           activation_38[0][0]              
                                                                 max_pooling_with_argmax2d_5[0][1]
__________________________________________________________________________________________________
conv2d_38 (Conv2D)              (None, 480, 480, 64) 36928       max_unpooling2d_5[0][0]          
__________________________________________________________________________________________________
batch_normalization_38 (BatchNo (None, 480, 480, 64) 256         conv2d_38[0][0]                  
__________________________________________________________________________________________________
activation_39 (Activation)      (None, 480, 480, 64) 0           batch_normalization_38[0][0]     
__________________________________________________________________________________________________
conv2d_39 (Conv2D)              (None, 480, 480, 12) 780         activation_39[0][0]              
__________________________________________________________________________________________________
batch_normalization_39 (BatchNo (None, 480, 480, 12) 48          conv2d_39[0][0]                  
__________________________________________________________________________________________________
reshape_1 (Reshape)             (None, 230400, 12)   0           batch_normalization_39[0][0]     
__________________________________________________________________________________________________
activation_40 (Activation)      (None, 230400, 12)   0           reshape_1[0][0]                  
==================================================================================================
Total params: 44,191,292
Trainable params: 44,166,948
Non-trainable params: 24,344
__________________________________________________________________________________________________
None
Epoch 1/10000

   1/7962 [..............................] - ETA: 17:31:27 - loss: 2.9573 - acc: 0.0707
…
